…
 a model, just specify its input and output layers\n","model.compile(loss='categorical_crossentropy', # using the cross-entropy loss function\n","              optimizer='adam', # using the Adam optimiser\n","              metrics=['accuracy']) # reporting the accuracy\n","\n","model.summary()"],"execution_count":8,"outputs":[{"output_type":"stream","text":["_________________________________________________________________\n","Layer (type)                 Output Shape              Param #   \n","=================================================================\n","input_1 (InputLayer)         (None, 32, 32, 3)         0         \n","_________________________________________________________________\n","conv2d_1 (Conv2D)            (None, 32, 32, 10)        1090      \n","_________________________________________________________________\n","max_pooling2d_1 (MaxPooling2 (None, 16, 16, 10)        0         \n","_________________________________________________________________\n","flatten_1 (Flatten)          (None, 2560)              0         \n","_________________________________________________________________\n","dense_1 (Dense)              (None, 16)                40976     \n","_________________________________________________________________\n","dense_2 (Dense)              (None, 10)                170       \n","=================================================================\n","Total params: 42,236\n","Trainable params: 42,236\n","Non-trainable params: 0\n","_________________________________________________________________\n"],"name":"stdout"}]},{"metadata":{"id":"S0TojtYissf_","colab_type":"text"},"cell_type":"markdown","source":["Convolution layer: (3X6X6 + 1)X10 = 1,090 parameters\n","De
…
idden)\n","model = Model(inputs=inp, outputs=out)\n","model.compile(loss='categorical_crossentropy', # using the cross-entropy loss function\n","              optimizer='adam', # using the Adam optimiser\n","              metrics=['accuracy']) # reporting the accuracy\n","\n","model.summary()"],"execution_count":11,"outputs":[{"output_type":"stream","text":["_________________________________________________________________\n","Layer (type)                 Output Shape              Param #   \n","=================================================================\n","input_2 (InputLayer)         (None, 32, 32, 3)         0         \n","_________________________________________________________________\n","conv2d_2 (Conv2D)            (None, 32, 32, 8)         872       \n","_________________________________________________________________\n","max_pooling2d_2 (MaxPooling2 (None, 16, 16, 8)         0         \n","_________________________________________________________________\n","dropout_1 (Dropout)          (None, 16, 16, 8)         0         \n","_________________________________________________________________\n","conv2d_3 (Conv2D)            (None, 16, 16, 16)        4624      \n","_________________________________________________________________\n","max_pooling2d_3 (MaxPooling2 (None, 8, 8, 16)          0         \n","_________________________________________________________________\n","dropout_2 (Dropout)          (None, 8, 8, 16)          0         \n","_________________________________________________________________\n","flatten_2 (Flatten)          (None, 1024)              0         \n","_________________________________________________________________\n","dense_3 (Dense)              (None, 64)                65600     \n","_________________________________________________________________\n","dense_4 (Dense)              (None, 10)                650       \n","=================================================================\n","Total params: 71,746\n","Trainable params: 71,746\n","Non-trainable params: 0\n","_________________________________________________________________\n"],"name":"stdout"}]},{"metadata":{"id":"EAPnmLOa2OcY","colab_type":"code","colab":{"base_uri":"https://localhost:8080/","height":343},"outputId":"c58d8263-0ff5-4648-d1f
…
